…
251671lines [00:00, 275753.43lines/s]279248lines [00:01, 274465.80lines/s]306697lines [00:01, 273469.22lines/s]334046lines [00:01, 272181.14lines/s]361423lines [00:01, 272654.50lines/s]388690lines [00:01, 272186.76lines/s]415910lines [00:01, 272154.43lines/s]443126lines [00:01, 271311.15lines/s]470258lines [00:01, 270645.23lines/s]497324lines [00:01, 269733.27lines/s]524298lines [00:01, 269574.95lines/s]551256lines [00:02, 268944.15lines/s]570152lines [00:02, 272817.22lines/s]
Namespace(batch_size=210, dropout=0.25, epoch_num=1000, lr=0.001, weight_decay=0.001)
DiSANN(
  (embedding): Embedding(40298, 300)
  (dropout): Dropout(p=0.25, inplace=False)
  (elu): ELU(alpha=1.0)
  (disan): DiSAN(
    (fw_DiSA): DiSA(
      (fc): Linear(in_features=300, out_features=300, bias=True)
      (w_1): Linear(in_features=300, out_features=300, bias=True)
      (w_2): Linear(in_features=300, out_features=300, bias=True)
      (w_f1): Linear(in_features=300, out_features=300, bias=True)
      (w_f2): Linear(in_features=300, out_features=300, bias=True)
      (elu): ELU(alpha=1.0)
      (tanh): Tanh()
      (softmax): Softmax(dim=-2)
      (sigmoid): Sigmoid()
      (dropout): Dropout(p=0.25, inplace=False)
    )
    (bw_DiSA): DiSA(
      (fc): Linear(in_features=300, out_features=300, bias=True)
      (w_1): Linear(in_features=300, out_features=300, bias=True)
      (w_2): Linear(in_features=300, out_features=300, bias=True)
      (w_f1): Linear(in_features=300, out_features=300, bias=True)
      (w_f2): Linear(in_features=300, out_features=300, bias=True)
      (elu): ELU(alpha=1.0)
      (tanh): Tanh()
      (softmax): Softmax(dim=-2)
      (sigmoid): Sigmoid()
      (dropout): Dropout(p=0.25, inplace=False)
    )
    (source2token): Source2Token(
      (fc1): Linear(in_features=600, out_features=600, bias=True)
      (fc2): Linear(in_features=600, out_features=600, bias=True)
      (elu): ELU(alpha=1.0)
      (softmax): Softmax(dim=-2)
      (dropout): Dropout(p=0.25, inplace=False)
    )
  )
  (fc): Linear(in_features=2400, out_features=300, bias=True)
  (fc_out): Linear(in_features=300, out_features=3, bias=True)
)

Epoch 1
	 correct: 374329 total: 550152
	 trian loss: 0.7365 acc: 0.68
	 val   loss: 0.008369 val_acc: 0.736
	 test  loss: 0.008481 val_acc: 0.735

Epoch 2
	 correct: 413823 total: 550152
	 trian loss: 0.6032 acc: 0.752
	 val   loss: 0.008332 val_acc: 0.76
	 test  loss: 0.007716 val_acc: 0.758

Epoch 3
	 correct: 429191 total: 550152
	 trian loss: 0.5457 acc: 0.78
…
